Model/2000_TRSCNN_model.pth (torch, 118701 bytes, 5 tensors)

dense.weight f4 [1, 10368]
-0.016623905 -0.0022853028 -0.005231028 0.0050693606 0.0083966 0.0013721068 0.0066607664 0.011347904
-0.002697196 0.009885654 -0.0029831883 0.004058426 -0.011541343 0.00013021562 0.007035433 0.0137735875
0.009122538 0.03459617 0.028660353 0.0010195813 0.00019316783 -0.00711144 -0.000877869 -0.02469115
0.000112892405 0.016137743 -0.006935066 0.009560478 0.018510291 0.0044624815 0.004072894 0.017184276
0.0038843201 0.003230407 -0.0023299272 0.030997204 -0.0031016257 0.018455062 -0.007930864 0.0032967394
-0.0020841514 0.013204135 0.019858735 0.021274822 0.014093125 0.009204452 0.005194733 0.008787858
0.009820978 0.0014429413 0.01929057 0.014485625 0.01069301 0.015478694 -0.00026021065 0.01703365
-0.0051050223 0.001208616 -0.0094955675 0.011009544 -0.016323578 0.01770234 -0.0020325389 0.006762848
-0.0042006113 0.007503948 0.0053922767 0.0069981343 0.0065455004 0.019071555 0.0028126354 0.0038020606
0.015619339 0.013472556 0.009226787 0.006006273 0.007281351 0.00494581 -0.003334322 0.014954275
0.0020388786 0.0036203875 -0.004850977 0.010211747 0.0054383473 -0.0014820972 0.0026396608 0.017789524
-0.0012251327 -0.008383643 0.018714352 0.0055827275 0.017868873 0.011148414 0.008432752 0.0045783254
0.023034684 -0.0032431842 0.0060597244 0.015458635 -0.019125324 0.0023431778 0.004187311 0.005912787
0.012620165 0.011484532 0.0019335521 0.0085045295 0.011671667 -0.012221394 -0.007626683 -0.005740215
-0.02058115 -0.002185611 0.00049082143 0.0015240078 0.005141755 0.011257286 0.008366412 -0.0061369766
0.00019278967 -0.011390476 -0.0064695375 0.009070063 -0.011887053 0.012043509 -0.0004335633 0.01535406
0.0052957893 0.0014382299 0.027717374 0.005810557 -0.016362587 0.023138823 -0.009241318 0.0022402715
-0.010591304 0.00042029112 -0.009768427 0.0035544944 0.005275522 0.022230398 0.006007536 0.004181278
-0.011503619 0.0009460876 -0.024711234 -0.0026046047 0.00074791815 0.0058970926 0.012244782 0.011575245
0.006031138 0.015422535 -0.024969522 0.0038016674 0.006881633 0.00090150867 -0.0065153623 -0.018573526
0.0037294107 -0.001955363 0.01253406 0.013734266 -0.017904634 -0.006440181 -0.021991355 0.01803001
0.006744889 0.0025140631 0.01872803 0.018681953 0.0074632247 0.0202339 0.0033599667 -0.006005524
0.014134874 0.0075389934 0.017100384 0.013145417 0.00016438164 0.0048255506 -0.014643497 0.018096149
0.011687701 0.013908552 0.016578559 0.017185885 0.019354321 0.014849499 0.011800984 0.0047161165
0.043860197 0.009308348 0.0004900351 0.014461976 -0.0058181826 -0.0036872614 0.025923096 0.01192953
0.013358035 0.031921465 0.015309776 -0.0033212123 -0.0003431131 0.00958453 0.01198104 0.016554635
0.012530684 0.008386797 0.0018565438 0.007767668 -0.0081313895 0.010824245 0.0011417875 0.0052472143
0.021930836 0.008194104 0.018757658 0.012686647 0.0060340986 0.0025453775 0.025695996 -4.9683103e-06
-0.01118152 0.009164197 0.03440161 0.020346908 0.000493073 0.004769364 -0.0053395443 0.019377124
0.0021071061 0.016434666 0.0054483633 0.015025436 0.003553955 0.03375602 0.029636877 -0.014323803
0.02192052 -0.005503777 -0.011658867 0.026184754 0.0068253586 0.0017103079 0.011347874 0.012707624
0.00421853 0.019005373 -0.007385215 0.007396843 -0.0009056073 0.009618602 0.012420283 0.00045999826
00000000: db2e 88bc 05c5 15bb 0b69 abbb e11c a63b
00000010: e591 093c 44d8 b33a 8f42 da3b 8fec 393c
00000020: 71c3 30bb 70f7 213c 9881 43bb 8bfc 843b
00000030: e717 3dbc 7d8a 0839 7d89 e63b 9daa 613c
00000040: b376 153c b7b4 0d3d 1ec9 ea3c 79a3 853a
00000050: 188d 4a39 1507 e9bb cb20 66ba 1845 cabc
00000060: a6c0 ec38 4d33 843c 8d3f e3bb 8da3 1c3c
00000070: e5a2 973c 023a 923b e975 853b 0ac6 8c3c
00000080: 1490 7e3b 3cb5 533b b1b1 18bb d9ed fd3c
00000090: a544 4bbb 122f 973c 74f0 01bc 1c0e 583b
000000a0: 4296 08bb 2856 583c c9ae a23c 8948 ae3c
000000b0: dae6 663c 45ce 163c 9438 aa3b f3fa 0f3c
000000c0: 2be8 203c 1321 bd3a 4207 9e3c 1d55 6d3c
000000d0: bc31 2f3c 599a 7d3c e26c 88b9 278a 8b3c
000000e0: 0848 a7bb 6c6a 9e3a 4c93 1bbc 6061 343c
000000f0: 06b9 85bc 7f04 913c 5834 05bb e19a dd3b
00000100: 48a5 89bb aee3 f53b b2b1 b03b 9b50 e53b
00000110: a37b d63b f33b 9c3c 3154 383b fe2b 793b
00000120: 42e8 7f3c ffbb 5c3c f32b 173c 45d0 c43b
00000130: 6698 ee3b 7610 a23b a484 5abb c702 753c
00000140: b59e 053b 0644 6d3b f2f4 9ebb 2c4f 273c
00000150: 2a34 b23b ee42 c2ba 29fe 2c3b 56bb 913c
00000160: a294 a0ba 8c5b 09bc d74e 993c 50ef b63b
00000170: be61 923c d6a7 363c 8729 0a3c c705 963b
00000180: 3cb3 bc3c 9a8b 54bb a790 c63b 3746 7d3c
00000190: b6ac 9cbc 0090 193b b635 893b 0dc0 c13b
000001a0: cfc4 4e3c 9e29 3c3c 3e6f fd3a 9556 0b3c
000001b0: 853a 3f3c 3e3c 48bc 41e9 f9bb 6a18 bcbb
000001c0: cd99 a8bc 783c 0fbb 78aa 003a 37c1 c73a
000001d0: 2b7c a83b 7b70 383c 4613 093c b118 c9bb
000001e0: 9527 4a39 1e9f 3abc 6afe d3bb 9a9a 143c
000001f0: eac1 42bc 2352 453c e24f e3b9 988f 7b3c
00000200: 4d88 ad3b fd82 bc3a 8c0f e33c 7c66 be3b
00000210: d50a 86bc a18d bd3c e668 17bc 85d1 123b
00000220: 2687 2dbc 855a dc39 c10b 20bc 85f2 683b
00000230: 49de ac3b 861c b63c ddda c43b 1a03 893b
00000240: ad79 3cbc dd02 783a 376f cabc 04b2 2abb
00000250: f00f 443a 663c c13b 579e 483c 19a6 3d3c
00000260: daa0 c53b cdae 7c3c e28c ccbc 6525 793b
00000270: 527f e13b 3953 6c3a d27e d5bb 8227 98bc
00000280: 2169 743b 8c25 00bb a85b 4d3c b005 613c
00000290: bdac 92bc 2708 d3bb 3727 b4bc acb3 933c
000002a0: 3b04 dd3b fbc2 243b 876b 993c e50a 993c
000002b0: 118e f43b 90c1 a53c e332 5c3b fdc9 c4bb
000002c0: f595 673c a909 f73b 1b16 8c3c e05f 573c
000002d0: dc5d 2c39 a71f 9e3b 47eb 6fbc 603e 943c
000002e0: c57d 3f3c b2e0 633c c2cf 873c 6ac9 8c3c
000002f0: f48c 9e3c 504b 733c ea58 413c a789 9a3b
00000300: c0a6 333d 0b82 183c b375 003a ecf1 6c3c
00000310: 74a6 bebb fba5 71bb ac5c d43c 1374 433c
00000320: a9db 5a3c 15c0 023d dbd5 7a3c b2a8 59bb
00000330: dce3 b3b9 6f08 1d3c 204c 443c 969d 873c
00000340: 7f4d 4d3c c768 093c 4657 f33a ec87 fe3b
00000350: 8539 05bc 2d58 313c 08a8 953a d3f0 ab3b
00000360: 4ca8 b33c 9040 063c a9a9 993c a7db 4f3c
00000370: b0b9 c53b 59d0 263b 6980 d23c 76b5 a6b6
00000380: b232 37bc 6e25 163c b4e8 0c3d 8fae a63c
00000390: 9241 013a 5348 9c3b 58f7 aebb c6bc 9e3c
000003a0: 6017 0a3b fea1 863c 2f88 b23b 3f2d 763c
000003b0: 78e9 683b c143 0a3d 09c9 f23c 62ae 6abc
000003c0: aa92 b33c 0759 b4bb d504 3fbc 6981 d63c
000003d0: 42a7 df3b 692c e03a 6fec 393c a333 503c
000003e0: 983b 8a3b 28b1 9b3c acff f1bb 3761 f23b
000003f0: 4766 6dba 5797 1d3c 717e 4b3c ec2b f139

conv.0.weight f4 [18, 3, 7, 7]
0.07486386 -0.05990233 0.10400759 0.04473485 0.06738245 0.08737732 -0.007997972 -0.07075208
0.03049456 -0.059895396 0.07414116 0.0065094447 -0.04667305 0.03489991 0.045698393 -0.01230778
0.05855361 -0.015341298 -0.107368335 0.005924344 0.043695148 0.05844337 0.006328307 -0.06195448
-0.060803987 -0.09778555 -0.13630535 -0.042940248 0.04712487 0.07818993 -0.056476865 -0.0888831
-0.12510294 -0.09354734 -0.04887592 -0.06702159 -0.00095864775 0.07591014 -0.08068192 -0.13249391
-0.11641958 -0.061136108 0.10316176 -0.02586311 -0.043070626 0.029492764 -0.052093465 -0.019780159
-0.063648485 -0.026551235 0.08101535 -0.042107865 -0.024373936 0.0660783 0.03534264 0.017820008
0.08090343 0.025963359 0.009630291 -0.056179147 0.053316645 0.0024694856 -0.024041139 -0.0004118029
-0.0056158747 -0.016857397 0.055228997 0.024075195 -0.086181745 -0.033537287 0.03181566 -0.027928336
-0.019274589 -0.09955066 -0.10817184 -0.043883115 0.0556555 0.048768837 0.039544802 -0.06671355
-0.046815787 -0.11733621 -0.020532127 0.042931627 0.029705929 0.058664657 -0.06915984 -0.09062733
-0.15128386 -0.12098733 -0.05119297 0.030112455 -0.017906565 0.055260602 -0.0047045373 0.0171278
0.059804995 0.04536809 0.044246223 -0.017179735 -0.035278242 -0.03648468 -0.04596736 -0.0030393174
0.07845799 0.08287287 0.07803323 0.08721971 -0.016421802 -0.023502091 -0.0062126806 0.019620085
-0.056177568 -0.0260289 -0.027350413 -0.03646436 -0.025570288 -0.10119192 -0.044805273 0.04275331
-0.0467546 0.048825823 -0.10764135 -0.120935775 -0.07431792 0.061147 0.038811624 -0.0071597234
0.017153446 -0.0732385 -0.09247122 -0.054473516 0.04605963 0.09262128 0.06048805 -0.03477276
-0.038192276 -0.057269108 -0.09484864 -0.001840994 0.0010902967 0.0040407483 0.05437165 -0.033800043
-0.04074029 -0.032262005 0.0223794 -0.0018173103 0.041140467 0.027082719 0.08386754 -0.06730964
0.022617295 -0.060392153 0.082889676 0.04054011 -0.012487725 0.049022157 -0.01914902 -0.0663288
0.047492936 0.054508716 -0.018187337 0.044514477 0.07431244 0.08414116 -0.0017179209 0.020543072
0.072068304 0.026420526 -0.0020837223 -0.06432036 -0.06492788 -0.017006515 0.034053028 0.021048862
-0.03954056 -0.057289362 0.06604327 0.062704615 -0.032752216 -0.07708526 0.022871414 -0.05886617
0.05248418 -0.047782756 -0.00384153 -0.030397631 0.0048203715 0.055022646 0.049631536 0.07709406
0.0016935513 0.022833172 -0.024272459 -0.0019656152 -0.00045795084 0.047640327 -0.027050389 -0.019561263
-0.055996917 -0.010550325 -0.0414334 -0.014332681 0.05878101 -0.020973552 -0.06076127 -0.06968808
0.080861054 -0.010028796 0.04631103 0.05623925 -0.05265357 -0.018130241 -0.020015547 -0.067174844
-0.06369255 -0.027992262 0.036670122 -0.012994502 -0.023192178 -0.007230693 -0.012514554 0.0024873766
-0.0015464089 0.078738675 0.011327344 -0.0147879245 0.059628256 -0.024786875 0.00080153276 -0.06280628
0.049647864 0.054638937 0.0631247 -0.06993029 -0.061851945 -0.04259477 -0.047467377 0.01887661
-0.034670096 -0.032490317 -0.042870615 -0.047966182 0.0068095145 -0.0691585 0.07502494 0.027448243
0.02833995 0.05135979 0.06927418 -0.0184023 -0.007958592 0.045396075 -0.05014111 -0.052418385
00000000: 3952 993d 255c 75bd ee01 d53d e43b 373d
00000010: cfff 893d e1f2 b23d ed09 03bc 77e6 90bd
00000020: bacf f93c e054 75bd 52d7 973d 2e4d d53b
00000030: 3d2c 3fbd 35f3 0e3d 3d2e 3b3d 92a6 49bc
00000040: e9d5 6f3d 115a 7bbc eee3 dbbd 0021 c23b
00000050: aff9 323d 5162 6f3d b05d cf3b fbc3 7dbd
00000060: 9a0d 79bd ca43 c8bd a193 0bbe 1de2 2fbd
00000070: 0206 413d 0b22 a03d 4954 67bd 5808 b6bd
00000080: fc1a 00be bf95 bfbd 1e32 48bd 9e42 89bd
00000090: c34d 7bba c776 9b3d 903c a5bd 7cac 07be
000000a0: 646d eebd db69 7abd 7946 d33d dfde d3bc
000000b0: d36a 30bd cf9a f13c f55f 55bd 000a a2bc
000000c0: 235a 82bd fa81 d9bc 60eb a53d 4c79 2cbd
000000d0: d9ab c7bc 0f54 873d 72c3 103d 44fb 913c
000000e0: b3b0 a53d 1cb1 d43c 5ec8 1d3c 1b1c 66bd
000000f0: 8e62 5a3d 18d7 213b ecf1 c4bc 40e7 d7b9
00000100: 5f05 b8bb 8618 8abc cd37 623d 5839 c53c
00000110: 0e80 b0bd 655e 09bd 2351 023d f7c9 e4bc
00000120: bee5 9dbc 37e1 cbbd 3389 ddbd c8be 33bd
00000130: 06f7 633d d5c1 473d bbf9 213d 1da1 88bd
00000140: e9c1 3fbd f84d f0bd fe32 a8bc 13d9 2f3d
00000150: d959 f33c 5a4a 703d ada3 8dbd d29a b9bd
00000160: 28ea 1abe 35c8 f7bd b8af 51bd 65ae f63c
00000170: cab0 92bc f158 623d 8528 9abb 9a4f 8c3c
00000180: 15f6 743d e4d3 393d 873b 353d 84bc 8cbc
00000190: eb7f 10bd f670 15bd 4548 3cbd 492f 47bb
000001a0: 95ae a03d 40b9 a93d e3cf 9f3d 3fa0 b23d
000001b0: 0487 86bc 7587 c0bc be93 cbbb 4dba a03c
000001c0: 731a 66bd 8f3a d5bc f90d e0bc a75b 15bd
000001d0: c878 d1bc b63d cfbd bc85 37bd 181e 2f3d
000001e0: c081 3fbd 96fd 473d 1173 dcbd 2dad f7bd
000001f0: fe33 98bd 4775 7a3d f0f8 1e3d 1d9c eabb
00000200: 6285 8c3c 11fe 95bd 8d61 bdbd 9f1f 5fbd
00000210: 06a9 3c3d 3ab0 bd3d 51c2 773d e26d 0ebd
00000220: 816f 1cbd 0393 6abd 0140 c2bd 824d f1ba
00000230: 49e8 8e3a 4168 843b cfb4 5e3d ea71 0abd
00000240: 4adf 26bd 2a25 04bd 0155 b73c d132 eeba
00000250: e882 283d 94dc dd3c bfc2 ab3d a3d9 89bd
00000260: e847 b93c c35d 77bd 10c2 a93d 630d 263d
00000270: 5199 4cbc 75cb 483d 68de 9cbc 65d7 87bd
00000280: f487 423d 8844 5f3d 9cfd 94bc d054 363d
00000290: 1f31 983d 3352 ac3d dc2b e1ba f249 a83c
000002a0: 8c98 933d dc6f d83c 0f8f 08bb 65ba 83bd
000002b0: e9f8 84bd 3f51 8bbc 307b 0b3d aa6e ac3c
000002c0: 48f5 21bd 40a8 6abd b241 873d 476b 803d
000002d0: 3027 06bd e0de 9dbd d55c bb3c a71d 71bd
000002e0: a7f9 563d dab7 43bd 2ec2 7bbb 7404 f9bc
000002f0: 35f4 9d3b 6d5f 613d 704a 4b3d 7ee3 9d3d
00000300: 27fa dd3a a20c bb3c 09d7 c6bc 8dd1 00bb
00000310: 1f19 f0b9 8122 433d c798 ddbc f13e a0bc
00000320: 065d 65bd 45db 2cbc 12b6 29bd 9fd3 6abc
00000330: 5bc4 703d bad0 abbc cfe0 78bd a0b8 8ebd
00000340: 7b9a a53d d24f 24bc a2b0 3d3d 215b 663d
00000350: 45ab 57bd df85 94bc a5f7 a3bc f792 89bd
00000360: 3d71 82bd 0750 e5bc 6933 163d e4e6 54bc
00000370: 86fd bdbc 73ef ecbb d809 4dbc 4103 233b
00000380: dfb0 caba be41 a13d 5396 393c 0d49 72bc
00000390: c23c 743d d80d cbbc f41d 523a 94a0 80bd
000003a0: 8f5b 4b3d 14cd 5f3d 8647 813d 9d37 8fbd
000003b0: 7758 7dbd db77 2ebd 276d 42bd 1fa3 9a3c
000003c0: 3b02 0ebd 9114 05bd 1999 2fbd 3078 44bd
000003d0: 5922 df3b f9a2 8dbd ada6 993d 23db e03c
000003e0: 2f29 e83c a55e 523d 9fdf 8d3d 6cc0 96bc
000003f0: c164 02bc 3cf1 393d c460 4dbd a9b4 56bd

conv.0.bias f4 [18]
0.06570019 -0.12121121 0.06896464 -0.024088379 0.06939433 0.047313843 -0.120121285 -0.007522231
-0.00037065663 0.07072676 0.0105057405 -0.039415162 -0.107449725 0.09182218 -0.007975576 -0.043465167
0.021039313 -0.091053136
00000000: d28d 863d 953d f8bd 553d 8d3d fe54 c5bc
00000010: 9d1e 8e3d 29cc 413d 2602 f6bd 0c7d f6bb
00000020: b154 c2b9 31d9 903d 4520 2c3c cb71 21bd
00000030: 9a0e dcbd 440d bc3d feab 02bc 8808 32bd
00000040: a35a ac3c 117a babd

conv.3.weight f4 [18, 18, 7, 7]
-0.037194706 -0.010722563 0.0011846258 0.03741039 0.03257992 0.0043483907 -0.055325437 -0.009628161
-0.0023475674 0.042314738 0.031855207 -0.00041302948 0.0066588367 -0.013276499 0.020151662 -0.03240385
-0.024571907 0.0100995945 -0.017455552 -0.03483133 -0.01057482 0.019730378 -0.007161708 -0.0057166535
-0.017164268 0.018328551 -0.009160759 -0.030800378 0.016588336 -0.04496837 -0.013125066 -0.0287541
0.016392535 0.026600672 -0.019227853 0.024789492 -0.024443826 -0.04456945 -0.023629308 -0.042709816
-0.01588399 -0.025381103 0.032608043 0.011877243 -0.005825963 0.0038272564 -0.022698529 0.0025938025
-0.027579503 -0.011084011 -0.009796015 -0.014070664 0.0026874554 -0.018617004 -0.012981424 -0.038861297
-0.036312595 -0.027259173 0.03524709 0.012087938 0.0011241833 0.013031494 0.031229017 0.023899794
0.013685588 0.024023259 0.009765928 -0.02977734 -0.010815113 -0.017100688 -0.014680444 -0.013345271
0.00018718206 -0.015934033 -0.04304591 0.012991492 -0.011390642 0.026334438 -0.020474974 0.002740841
-0.028252566 0.0060124025 -0.021935282 0.012033545 0.0059284703 -0.0020906602 -0.014978939 0.030055294
0.017920122 0.024054836 -0.0012799532 -0.038307976 -0.014966772 -0.031272724 0.032558806 0.012898456
-0.0015691504 -0.0069054873 -0.04170394 0.0009660834 0.01714869 -0.017774845 0.037112366 -0.0067830747
-0.047001425 0.040463857 -0.012847425 -0.0031704893 0.022274261 0.007027425 -0.0043451707 -0.01293266
0.04355376 -0.024861058 -0.018999776 -0.0012981739 -0.033046093 -0.018290747 -0.057394274 -0.0016789346
-0.018303622 -0.0003747441 -0.048721142 -0.020761682 -0.059783187 -0.062852874 0.028166557 -0.048124485
-0.014687469 -0.03544115 0.0137855625 -0.004776369 -0.007088647 0.03962762 0.024096496 -0.0015165363
-0.029483296 0.009988696 -0.03620783 0.013676528 -0.0084379185 -0.021960093 -0.03275475 0.008333678
-0.017620936 -0.017795084 -0.046096392 0.033795353 0.015119717 -0.047363184 0.01566939 0.016515989
-0.040644187 -0.023402935 0.010584677 0.015922567 -0.05265291 -0.018371128 0.030294763 0.03287354
0.008842038 -0.0070828437 -0.025307387 -0.04768477 -0.010783726 -0.031363353 0.014860447 -0.020661106
-0.018287806 -0.008914182 -0.0172265 -0.039709974 -0.030495826 -0.0032699383 0.009907953 -0.011169368
-0.0069402154 -0.032961536 -0.032363165 -0.019203957 -0.030860716 0.0108486125 -0.034851022 -0.032447375
-0.053178873 -0.061987244 0.0148984 -0.0031268727 -0.018927708 0.008956397 -0.031627957 -0.0016846438
-0.023285914 -0.026642777 0.0074133542 -0.010515572 -0.020780409 0.010757849 -0.033434927 0.0039233346
-0.027971921 -0.021180805 -0.0022810139 -0.019166904 -0.023449676 0.00770636 0.006922491 0.02237155
0.025109785 0.027474938 -0.020639291 -0.0077566076 -0.018557495 -0.017923176 -0.004906664 -0.023947181
-0.021369854 0.030379979 -0.0004295368 0.020698067 -0.010993594 -0.010074427 0.009930413 0.020276407
0.011648558 -0.028077701 -0.032371476 0.0015214207 -0.029421743 0.024424292 0.016840372 0.023329573
0.009448234 -0.013889261 -0.022260245 -0.004105059 -0.01376467 0.027887465 0.03459652 0.024658585
-0.00042941968 0.0042838776 0.010709947 0.015405539 -0.009978421 -0.021432463 0.007369792 -0.0264644
-0.027774917 -0.0069009718 0.006365297 -0.00060116657 -0.032252375 -0.020021465 -0.0023506316 0.006135713
00000000: 7a59 18bd b0ad 2fbc 7245 9b3a a33b 193d
00000010: 8672 053d f27c 8e3b ed9c 62bd 6fbf 1dbc
00000020: a5d9 19bb 3852 2d3d 9b7a 023d e18b d8b9
00000030: 5f32 da3b ac85 59bc 1915 a53c e6b9 04bd
00000040: 064b c9bc c578 253c f2fe 8ebc 4cab 0ebd
00000050: 0342 2dbc 9aa1 a13c c3ac eabb c452 bbbb
00000060: 149c 8cbc c225 963c 0217 16bc 1351 fcbc
00000070: 43e4 873c c130 38bd 840a 57bc b88d ebbc
00000080: a349 863c a7e9 d93c bb83 9dbc 5513 cb3c
00000090: 6b3e c8bc 758e 36bd 4092 c1bc 7df0 2ebd
000000a0: 241f 82bc 08ec cfbc 0390 053d c598 423c
000000b0: b8e7 bebb b5d2 7a3b 44f2 b9bc c9fc 293b
000000c0: 69ee e1bc b699 35bc 777f 20bc a488 66bc
000000d0: 0520 303b b082 98bc 0ab0 54bc 062d 1fbd
000000e0: 84bc 14bd a14e dfbc 415f 103d 7d0c 463c
000000f0: 5559 933a 0c82 553c ffd3 ff3c 80c9 c33c
00000100: 8439 603c 6dcc c43c 4501 203c 9cef f3bc
00000110: df31 31bc be16 8cbc 3f86 70bc 20a6 5abc
00000120: 4d46 4439 1788 82bc e850 30bd 44da 543c
00000130: d19f 3abc 52bb d73c 22bb a7bc ae9f 333b
00000140: ed71 e7bc b003 c53b 9fb1 b3bc 5928 453c
00000150: 9d43 c23b 7503 09bb 396a 75bc 8536 f63c
00000160: 38cd 923c a60e c53c 1ac4 a7ba d3e8 1cbd
00000170: 3137 75bc d417 00bd 625c 053d 0c54 533c
00000180: f3ab cdba 6d47 e2bb c0d1 2abd c240 7d3a
00000190: 697b 8c3c 8d9c 91bc 2303 183d 8e44 debb
000001a0: 9184 40bd 6ebd 253d 027e 52bc fcc7 4fbb
000001b0: 8378 b63c 5046 e63b ef61 8ebb 82e3 53bc
000001c0: 6d65 323d 6ba9 cbbc 6ba5 9bbc 7d27 aaba
000001d0: 575b 07bd 7ad6 95bc 4216 6bbd b20f dcba
000001e0: 7af1 95bc 4d79 c4b9 d28f 47bd 6714 aabc
000001f0: 37df 74bd 02b9 80bd 8dbd e63c 2e1e 45bd
00000200: b6a3 70bc bd2a 11bd d7dc 613c 1683 9cbb
00000210: e247 e8bb 9250 223d 0466 c53c 84c6 c6ba
00000220: f486 f1bc a1a7 233c a94e 14bd 8413 603c
00000230: 323f 0abc a7e5 b3bc d829 06bd fb89 083c
00000240: c859 90bc ffc6 91bc 92cf 3cbd ff6c 0a3d
00000250: b1b8 773c e6ff 41bd 185d 803c 8a4c 873c
00000260: 857a 26bd 83b7 bfbc 5a6b 2d3c 0b70 823c
00000270: 94aa 57bd 0c7f 96bc b92c f83c 68a6 063d
00000280: 32de 103c 3317 e8bb 7051 cfbc 1b51 43bd
00000290: 3aae 30bc dc76 00bd 3b79 733c 7b41 a9bc
000002a0: 4fd0 95bc ca0c 12bc 971e 8dbc eda6 22bd
000002b0: 62d2 f9bc 764c 56bb f854 223c baff 36bc
000002c0: bf6a e3bb ad02 07bd 3d8f 04bd 9e51 9dbc
000002d0: 9dcf fcbc 61be 313c f2bf 0ebd 8ae7 04bd
000002e0: 17d2 59bd 56e6 7dbd 6b18 743c 38ec 4cbb
000002f0: 480e 9bbc dabd 123c 518c 01bd 44cf dcba
00000300: 1ac2 bebc f441 dabc b9eb f23b 8149 2cbc
00000310: ad3b aabc b041 303c 10f3 08bd 518f 803b
00000320: 5f25 e5bc 5e83 adbc 107d 15bb e903 9dbc
00000330: 8919 c0bc a285 fc3b 10d6 e23b 8a44 b73c
00000340: 09b3 cd3c 1f13 e13c bb13 a9bc 242b febb
00000350: e305 98bc a0d3 92bc 15c8 a0bb e12c c4bc
00000360: d50f afbc 6fdf f83c 7433 e1b9 fe8e a93c
00000370: 7a1e 34bc 360f 25bc 2cb3 223c b51a a63c
00000380: 98d9 3e3c 3503 e6bc f497 04bd 686a c73a
00000390: de05 f1bc 7415 c83c d2f4 893c a91d bf3c
000003a0: c4cc 1a3c c88f 63bc 1e5b b6bc bb83 86bb
000003b0: 3685 61bc 4174 e43c 15b5 0d3d cd00 ca3c
000003c0: bc23 e1b9 c55f 8c3b c678 2f3c 8467 7c3c
000003d0: 887c 23bc 2293 afbc 4c7e f13b dfcb d8bc
000003e0: 3988 e3bc 8c21 e2bb fb93 d03b 9b97 1dba
000003f0: 111b 04bd 0e04 a4bc 0e0d 1abb 170e c93b

conv.3.bias f4 [18]
0.014641485 -0.008327564 0.022178791 -0.0407077 0.017870182 0.0024855903 0.027188517 0.023515915
0.029393671 -0.016070303 0.0031162566 0.045486394 -0.0060646473 -0.01839459 -0.025838433 0.022046063
0.019511873 0.03150712
00000000: d7e2 6f3c 5670 08bc 4cb0 b53c 1ebd 26bd
00000010: 7d64 923c 49e5 223b 74ba de3c 73a4 c03c
00000020: ffca f03c dea5 83bc 1c3a 4c3b f14f 3a3d
00000030: f3b9 c6bb 40b0 96bc 1fab d3bc f299 b43c
00000040: 5dd7 9f3c 9c0d 013d
